ros_anomaly/model/model.tflite (tflite, 3456 bytes, 7 tensors)

arith.constant f4 [9, 4]
000000 c6 6a 22 3f 2e 2d 23 3f a8 cb 97 3d 00 f9 13 be
       0.63444173 0.63740814 0.07411891 -0.14450455
000010 dd 42 ea be e7 59 12 bf ec 3c e6 be e8 84 da be
       -0.45754138 -0.5716843 -0.44968355 -0.42679524
000020 c4 fb 11 3e 38 38 16 3f 52 fa 2b 3f d0 95 3b 3e
       0.14256197 0.58679533 0.67178833 0.18318868
000030 dc 41 fb 3e c6 73 18 3f e0 ee 8a bc 70 c6 81 bd
       0.49073684 0.59551656 -0.016959608 -0.06336677
000040 04 fa 13 be 2c a6 da 3e e0 a8 af 3d fc f3 20 3e
       -0.14450842 0.42704904 0.08577132 0.15718073
000050 0e 3c 06 3f 0e b2 62 be e0 1c dd bd f8 51 fe 3d
       0.52435386 -0.22138235 -0.10796523 0.12417978
000060 00 40 4e bb 20 c7 af bc 30 b8 64 bd 62 64 7e be
       -0.0031471252 -0.021457255 -0.055839717 -0.2484298
000070 28 69 a3 bd f0 c1 1d 3f b1 4b 29 bf 60 86 b3 3d
       -0.07979041 0.6162405 -0.6613112 0.08765864
000080 ea 89 e1 be 06 cb 1e bf 1f e7 8c be 40 fb d7 3d
       -0.44050533 -0.6202854 -0.2752008 0.10545969

arith.constant1 f4 [4, 2]
000000 9c 19 49 3f f0 18 02 be 00 f2 5a be 30 50 1e bf
       0.785547 -0.12704825 -0.21381378 -0.61841106
000010 00 9b f6 be 00 d4 e6 bb 58 59 be 3e 80 bc 39 bd
       -0.4816513 -0.0070443153 0.3717754 -0.045345783

arith.constant2 f4 [2, 2]
000000 8e 5a d7 be b5 01 93 3f e7 79 83 3f 71 76 9b bf
       -0.42061275 1.1484896 1.0271577 -1.214552

arith.constant3 f4 [2, 2]
000000 32 17 65 3f 4a d0 07 bf 02 4a e9 be 3e d3 8f be
       0.8948852 -0.530522 -0.45564276 -0.28090852

arith.constant4 f4 [2, 4]
000000 08 01 d7 3e 00 c9 bc 3d 00 46 27 be d8 47 83 be
       0.41992974 0.09218025 -0.16335297 -0.2564075
000010 50 df 2b 3f 18 e8 d2 be 80 1a 80 bc 00 77 1d bd
       0.6713762 -0.41192698 -0.015637636 -0.038443565

autoencoder_1/sequential_1_2/dense_5_1/Add/ReadVariableOp f4 [9]
000000 59 d2 c0 be 6e 8b aa be 9c e8 54 3f 26 05 85 3d
       -0.37660483 -0.333095 0.83167434 0.064951226
000010 98 10 e6 bd 49 86 46 bf 35 d0 5b 3d e7 14 46 be
       -0.11233634 -0.7754865 0.05366536 -0.19343911
000020 2d 1e 5f 3c
       0.013618034

autoencoder_1/sequential_1/dense_1/MatMul f4 [4, 9]
000000 d2 1d 95 be 10 76 0e bd 80 85 35 bd 88 c9 09 bf
       -0.29124314 -0.034780562 -0.04431677 -0.5382314
000010 50 b0 13 bf d4 19 ad be 48 e3 bf 3d f0 3e c3 3d
       -0.57690907 -0.33808768 0.09369522 0.09533489
000020 b4 24 13 3f 7c ac fa 3e 2c 1d 83 be 9c 05 c2 3e
       0.5747788 0.4895972 -0.25608194 0.37894905
000030 32 36 0c 3f e0 3f bc bd ec c0 3e 3e f0 6b 64 bd
       0.54770195 -0.09191871 0.18628281 -0.055767
000040 f4 a2 b1 3e 3c 6e 2e 3e 9a 93 25 bf 06 5d 21 3f
       0.34694636 0.17034239 -0.6467835 0.6303257
000050 34 0e 02 be 00 8c b4 bc 18 06 d4 3e 99 35 88 be
       -0.1270073 -0.022039413 0.414109 -0.26603392
000060 80 3c c4 be 00 14 5e be d6 4d f1 be 8c d8 16 bf
       -0.38327408 -0.21687317 -0.47129697 -0.58924174
000070 65 7b 90 be a6 0c c4 be 34 b6 05 3e e0 0a 00 3e
       -0.28219143 -0.382909 0.13057786 0.12504148
000080 9e f2 1e bf e1 17 bd be 06 71 a2 3e a6 fc 88 3e
       -0.62088954 -0.3693228 0.31726855 0.26755255
