ros_anomaly/model/model.tflite (tflite, 4040 bytes, 11 tensors)

arith.constant f4 [9, 4]
-0.46989524 -1.1004298 0.35568935 -0.49508277 -0.21371597 0.37384748 -0.11987278 -0.12976542
-0.20470992 -0.13653688 0.057374 0.49495584 0.12157589 0.4827946 -0.21791093 0.33701423
-0.35967892 1.0461366 -0.36284488 -0.52532667 0.575238 -1.0481967 1.3623502 0.4796486
-0.5547922 -0.0027000443 0.020664122 -0.48626074 0.22004086 -0.0028368693 0.029651076 -0.25112423
0.3633077 1.7967656 -1.5238659 0.42211133
00000000: 1c96 f0be e2da 8cbf ea1c b63e 7d7b fdbe
00000010: 5cd8 5abe f068 bf3e dc7f f5bd 3ae1 04be
00000020: 7a9f 51be 53d0 0bbe 0001 6b3d da6a fd3e
00000030: c8fc f83d db30 f73e 0b24 5fbe 218d ac3e
00000040: d627 b8be cee7 853f cec6 b9be cf7b 06bf
00000050: cc42 133f 4f2b 86bf 7e61 ae3f 8094 f53e
00000060: dd06 0ebf 3af3 30bb ce47 a93c 2bf7 f8be
00000070: 6452 613e c5ea 39bb d0e6 f23c 5b93 80be
00000080: 7803 ba3e 6afc e53f 0a0e c3bf fa1e d83e

arith.constant1 f4 [4, 2]
-0.8434882 -0.8564491 0.0503482 1.4201858 0.7126022 0.6122214 -0.81621957 0.055530038
00000000: d8ee 57bf 4040 5bbf ea39 4e3d a6c8 b53f
00000010: 196d 363f 8bba 1c3f c4f3 50bf 7773 633d

arith.constant2 f4 [2, 1]
1.7641345 1.1881303
00000000: 29cf e13f a714 983f

arith.constant3 f4 [1, 2]
-1.1444894 0.70644134
00000000: a17e 92bf 57d9 343f

arith.constant4 f4 [2, 4]
-0.35294908 0.14286357 0.38694724 0.86270416 1.2215189 0.18719035 0.91362184 -1.3272172
00000000: beb5 b4be d44a 123e f31d c63e 2eda 5c3f
00000010: bb5a 9c3f d4ae 3f3e 1fe3 693f 41e2 a9bf

autoencoder_1/sequential_1_2/dense_3_1/Add/ReadVariableOp f4 [2]
-0.0017557646 -0.90030074
00000000: af21 e6ba 1c7a 66bf

autoencoder_1/sequential_1_2/dense_4_1/Add/ReadVariableOp f4 [4]
0.0 -1.7148603 -0.0014812996 -0.012787186
00000000: 0000 0000 8b80 dbbf 2b28 c2ba 5881 51bc

autoencoder_1/sequential_1_2/dense_5_1/Add/ReadVariableOp f4 [9]
0.24767548 -0.095463604 -1.1484929 0.17199862 -0.09531523 -1.4491237 -0.08816201 -0.11084504
0.5331613
00000000: a49e 7d3e 6c82 c3bd d101 93bf 6820 303e
00000010: a234 c3bd e37c b9bf 498e b4bd b902 e3bd
00000020: 427d 083f

autoencoder_1/sequential_1/dense_1_2/Add/ReadVariableOp f4 [2]
0.11533089 0.29321808
00000000: 9a32 ec3d ae20 963e

autoencoder_1/sequential_1/dense_1/Add/ReadVariableOp f4 [4]
0.18448506 -0.14512645 0.20659943 0.4135474
00000000: a7e9 3c3e 079c 14be cd8e 533e 7cbc d33e

autoencoder_1/sequential_1/dense_1/MatMul f4 [4, 9]
0.17147228 1.0249317 0.55966514 0.26848164 0.44834134 0.96612954 0.26482648 0.56369114
-0.8334591 0.253537 -0.54162896 0.008888562 -0.29157284 -0.5735005 0.045845035 0.22953783
0.2526149 -0.7911207 -0.027780548 0.618267 -0.27265382 -0.024613244 0.4242703 0.8555219
0.74058247 -0.005216888 0.045388177 0.8799972 0.17717256 0.42408457 0.16033554 -0.30790365
-0.6252818 0.18164642 0.36312065 0.7001105
00000000: 6e96 2f3e f630 833f 3746 0f3f 6d76 893e
00000010: ff8c e53e 4454 773f 5697 873e 104e 103f
00000020: 935d 55bf 9acf 813e 32a8 0abf 55a1 113c
00000030: 0949 95be eed0 12bf 01c8 3b3d f70b 6b3e
00000040: bd56 813e e386 4abf 0894 e3bc bf46 1e3f
00000050: 4899 8bbe b7a1 c9bc f539 d93e 7c03 5b3f
00000060: d096 3d3f 6ef2 aabb f4e8 393d 7f47 613f
00000070: b96c 353e 9d21 d93e 002f 243e 8ca5 9dbe
00000080: 7812 20bf 8501 3a3e f3ea b93e 713a 333f
